best_model.pt (torch, 630651 bytes, 4 tensors)

user_emb.weight f4 [1296, 64]
00000000: b2f2 b1be 5fe4 05bf e787 293f 31f3 c33e
00000010: e96f e03e ea3d 923e 8cc8 5a3e 6213 1d3f
00000020: dad2 05bf c8f4 86be 26a9 b5bc 13f9 00bd
00000030: 1027 f53e 34c2 8f3e deee d3be c08d 5e3e
00000040: 2166 24bf 1298 1d3f 8d94 213f 2247 983e
00000050: 1369 f63e 87cd 4f3e 6075 10be 23e9 15bf
00000060: 9e99 0abc 40ab d83e 31a0 dcbe 9ef4 36be
00000070: 9f14 6e3e d074 d93d 02fc 99be ff17 9e3e
00000080: e02c 9ebe 279b bf3d 9b31 e53e e1a2 f23d
00000090: 94e9 f43e bad3 2bbe 2cbb 2d3e a2a5 22be
000000a0: 7ea3 ddbe 71ce b1be 9e8d 953e d47d bebb
000000b0: 51ad 103e 5938 723e 1525 54bc efd4 18be
000000c0: 2987 41be 0d6c 59be bb25 a73c d6d0 f63d
000000d0: ebe3 9a3d 59ae 1fbe 8280 353d d402 dcbe
000000e0: 80b3 37be 9099 88bc 0439 273e 95cb 563c
000000f0: d6c7 3f3e 59bb a6be e8db 32be 7c10 fc3d
00000100: f19c 0e3e 2a1d 12bd bc0c 673e e5d9 763e
00000110: 9606 883e f0e3 da3d 4bda 003e dd7a c13d
00000120: 1f50 8a3e 87b4 643e 3a15 823e 43b4 09be
00000130: 3242 14bd 7716 503e f372 a13e e2ca 17be
00000140: 36f1 7d3e 572c 8f3e 62c8 a2be 06a5 cdbd
00000150: 9a75 b2bd db4b 59be f031 993e 4724 d4bd
00000160: 9691 87be d161 273e b6ee 6fbe 1c6c 893e
00000170: f4d2 88be 129b 0a3e b4d9 66be 5e8c 993d
00000180: 4c52 eebd 2bdc 323e 611e 863e cfe1 3cbd
00000190: 486a 093e ff6a 93be da20 83be 572d 90bd
000001a0: cfe1 a8be 8099 fa3b f45f 7f3e cddc 1d3e
000001b0: e4df 6cbd 2022 3c3e ee86 a5be 1c68 2ebe
000001c0: d137 46be 922b 3f3e f597 4cbb 6159 063e
000001d0: 9a62 453e 437e dc3d 641a 623e 1b0f 05be
000001e0: c5af db3d 9d04 94be d819 fa3d 3a86 88bc
000001f0: 8ac6 98be 2ecb 8cbd e0a4 163e cfcd ad3d
00000200: 8751 f2be 9d15 a1bd bff1 063f aad6 ed3d
00000210: e75c ac3e fdbb 0b3f 92d7 063f 1f6d dabd
00000220: 4465 06bf a795 103f 175e d23e 1a41 e6bd
00000230: a714 aebe 269f ac3e c15d d53e 52e6 b03e
00000240: 5206 003f ae28 adbd a5a0 ab3e c4a5 e13e
00000250: fbce f73e 50d4 40be cbe6 07bf fabe 8ebe
00000260: 22ff ffbd 61a1 58be 96ba 23be f41a ebbe
00000270: 80e7 e9be 54cf d13e ca21 b63c e062 72be
00000280: 8c01 9d3d f3e0 993e d8a7 3a3e f2a9 ac3d
00000290: b624 573d 7d08 ac3e 30e0 83bc deeb aa3d
000002a0: 003d a7be c1a1 403e 3faa 4f3e 2db8 8c3d
000002b0: a7b8 17be 1d09 cbbc d597 13be 9e20 413e
000002c0: ba4e 093e c172 e53e 2f8e 0ebd 5147 00be
000002d0: 3110 843d 8967 b5be 9cf7 5c3d cbce f33d
000002e0: a9b5 2e3e 9ea7 46be 3e40 14bd 10a9 243d
000002f0: 6fc6 81be 01a9 90be dee5 383e b074 26bd
00000300: 4b9c 90bd e64c c8be 5c6c 81bd d5fe 9b3e
00000310: 6ce7 94bd 38cb da3e 59bf c73e c87d de3d
00000320: 5da3 dd3d 1704 7f3e 8dbf a7bd b137 c5be
00000330: 52e8 dcbe 7f66 b73e 3a33 8fbe b5fe 4dbe
00000340: 587d 2cbe 00f5 e3bd 579e b23e b793 23be
00000350: 7ec8 a83e aa31 093e 94e9 cfbe 2f61 c8be
00000360: e5a9 80be 584b 1cbe 7467 933e f25e f33d
00000370: c0f4 e2be 9697 77bc ed40 d8be 1b73 ad3e
00000380: 7d69 e43d 8ce8 9a3e 141d 8c3e 9e85 a23d
00000390: 2fd6 483e f027 1abe ffa4 20be 7083 ba3b
000003a0: 5ea3 b1be 0446 443e b3bb 593e 3f88 88be
000003b0: 0ef0 8f3d 159d de3d da1c f7bd e0a3 3b3e
000003c0: 5bd7 033e 26aa 763e d2bf 973e bc70 33be
000003d0: 1a71 303e b4f7 88bd 36ce 10be 9e1c cebc
000003e0: 7734 c13e eb89 d5be 73b4 a53d ebf8 4bbc
000003f0: f076 8cbc db05 59be a6ea 99bc 28a4 9e3e
-0.34755474 -0.5230159 0.66222996 0.38271478 0.4383538 0.28562862 0.21365565 0.613577
-0.5227486 -0.26358628 -0.022175383 -0.031487536 0.47881365 0.28077853 -0.4139318 0.21733761
-0.64218336 0.61560166 0.63117296 0.2974177 0.4812704 0.20293246 -0.14107275 -0.58558863
-0.008459477 0.42318153 -0.43090966 -0.17866752 0.23250054 0.10617983 -0.3007508 0.30877683
-0.30893612 0.09355765 0.44764408 0.11847473 0.47834456 -0.16779986 0.16965932 -0.15883496
-0.43288797 -0.34727815 0.29209608 -0.0058133397 0.14128615 0.23654307 -0.012948294 -0.14924978
-0.18899216 -0.21232624 0.020403733 0.12051551 0.07563003 -0.15593852 0.044312008 -0.42970908
-0.17939568 -0.016674787 0.16330343 0.013110061 0.18728575 -0.3256481 -0.174667 0.12307832
0.13927056 -0.035672344 0.22563452 0.24106558 0.26567525 0.10688007 0.12583272 0.094472624
0.27014253 0.2233449 0.2540682 -0.1344767 -0.03619594 0.2032107 0.31533012 -0.14823487
0.24799046 0.27963516 -0.31793505 -0.10041241 -0.08713837 -0.21220343 0.29920912 -0.10358482
-0.2647826 0.16345908 -0.23430905 0.26840293 -0.26723444 0.13535717 -0.22543985 0.07497476
-0.11636791 0.174668 0.26195052 -0.046113785 0.1341945 -0.2879257 -0.25611 -0.07039898
-0.32984778 0.007647693 0.24938947 0.1541626 -0.057830706 0.18372393 -0.32329506 -0.17031902
-0.1935723 0.18668965 -0.0031218503 0.13120033 0.19275895 0.1076627 0.2208038 -0.12994044
0.10726885 -0.2890977 0.122119606 -0.016665567 -0.29838973 -0.06874691 0.14711332 0.084865205
-0.47327825 -0.078654505 0.52712625 0.116132095 0.3366463 0.5458372 0.52672684 -0.106653444
-0.5249827 0.5647835 0.4108741 -0.11242886 -0.3400013 0.3371517 0.4167309 0.3455072
0.50009644 -0.08455025 0.33521 0.44071782 0.484001 -0.18830991 -0.5308654 -0.2788008
-0.124998346 -0.21155311 -0.15989146 -0.45919 -0.45684433 0.4097849 0.022232909 -0.2367053
0.07666311 0.30054435 0.1822809 0.08430852 0.052525245 0.33600226 -0.016098112 0.08345769
-0.32663727 0.18811704 0.20279787 0.06871066 -0.14816533 -0.024784619 -0.14413388 0.18860099
0.13408938 0.44814113 -0.034803566 -0.12527205 0.06448401 -0.35430554 0.053947076 0.11904677
0.17061485 -0.19399878 -0.03619408 0.040200293 -0.25346705 -0.2825394 0.18056437 -0.040638626
-0.070610605 -0.3912117 -0.06319496 0.3046786 -0.07270703 0.4273317 0.39013174 0.108638346
0.10822175 0.24903904 -0.08190832 -0.38519052 -0.43145996 0.35820386 -0.2796877 -0.20116694
-0.1684469 -0.111307144 0.3488643 -0.15974317 0.32965463 0.13397852 -0.40607893 -0.39136645
-0.2512962 -0.15263116 0.28789866 0.11883344 -0.44327354 -0.0151118245 -0.42237034 0.3387688
0.11152933 0.30255544 0.27365935 0.07935642 0.19612955 -0.15054297 -0.15687941 0.005691938
-0.34694952 0.19167334 0.21263008 -0.26666448 0.07028209 0.10869805 -0.1206605 0.18324232
0.1287512 0.24088344 0.29638535 -0.17523474 0.17230645 -0.066878706 -0.14141163 -0.02516013
0.3773534 -0.41706786 0.080910586 -0.012449483 -0.017146558 -0.2119364 -0.018788647 0.30984616

item_id_emb.weight f4 [2186, 32]
00000000: 9db9 cbbd 5b86 2ebe 3a8d 8a3e a503 da3d
00000010: bbfa 663d 49ff 933c 5f4e d4bc 0f71 633e
00000020: 098e 31be d25d 86be 2308 bc3c 1067 5f3e
00000030: 9338 3b3e 71a0 0e3e f195 4ebe 65f3 a93e
00000040: 1244 8bbe 4689 523e c4c0 383e 2db9 1ebc
00000050: 90e5 273e 8c02 353e 397c 30bd d01d 1dbe
00000060: 919a 163e e08e f93d f3fd 14be 74fc aabd
00000070: 6d29 013e 98d3 f03d 9294 bdbd 6c95 9fbc
00000080: ceaf 523e 72ac 1a3e c23b 2a3e c382 373d
00000090: ed2e 9a3d 9c54 9cbd 18f0 afbd 6bb3 b9bd
000000a0: 711c 7b3e be04 ba3d 7753 493e 7745 f83d
000000b0: 0d44 3abe 9f27 c83d 4fdb 563e fe59 3d3d
000000c0: 6935 0c3e 87d6 d53d f6e7 a1be ccca 77be
000000d0: 6a4e 22be c2ef 21be 8934 393e 9937 113e
000000e0: 8f85 9abd 795c 6b3c f860 43bd 9280 633e
000000f0: 3b86 29be eb74 1b3e f30e e6bc ffad 21be
00000100: 798f d63d d5eb 033e 795e 86bc bbca c1bd
00000110: e13b 1fbe e9e2 1fbe 0b33 3fbe 932f bebd
00000120: 8b5c b23c 53ae cabd 5f7f 0e3d 594f 583e
00000130: 6d35 e2bd 3c06 013d 1099 0fbd c484 363e
00000140: 2183 4abd 50ab 9ebd f9a6 c2bd 2f53 38be
00000150: ddda 94bd 4627 5e3d 11da 973b b383 123e
00000160: a0eb 263e 9543 bbbd f36e f43d d7df 8c3d
00000170: c6ed a93b 027f 043d 691a 203e b666 01be
00000180: 2bf0 b73d 2d7e 233e 70ee 823b c0cd 1bbe
00000190: aa5f 18be 1f4c 1bbe ab83 43be f3d6 28be
000001a0: 24fc 463b c8e6 15be c332 9fbc a1d4 623e
000001b0: 0136 01be 002e 88bb 5b0e 2fbd 9030 333e
000001c0: e949 c5bd a4b4 25bd 94d1 0ebe b282 51be
000001d0: 0e10 a4bd daa4 4f3d 66ef a7bd d8cb 823e
000001e0: 09aa 283e 78a6 9fbd 2a58 f53d aa49 a43d
000001f0: 3c27 08bc 5f05 573d 0463 213e bc04 4cbe
00000200: 41f9 3bbe dcee 203d 7caa 743e 2786 98bd
00000210: 2d31 993d aee0 383e 75e2 123e 1b75 60be
00000220: 5cfa 55be 678e 563e 73dd 5f3e 1574 3b3e
00000230: cbfe 94be b718 2d3e 75b0 6c3e 8e4f 983e
00000240: ea7c 383e a1b7 42be 304e 3a3d 1d97 bb3d
00000250: 952c 393e 0bd9 cabd 7541 9cbe 179a 213d
00000260: 0948 d13d fe78 93be 0a23 3a3d 69aa 3dbe
00000270: e7e7 7fbe 8276 843e d34c 1e3e 0de5 a6be
00000280: f79a 893d d5c1 10be 8f56 47bb 3500 763d
00000290: 0533 80be ebbe 143e 6232 a63d c28e 7fbd
000002a0: baf9 423e ee65 d43d 40b0 e53c d4eb 74bd
000002b0: 5c70 a5be e5bf 093e e845 51be 78f4 453d
000002c0: be95 15be eb02 64be fd38 073e 1bea 93be
000002d0: 9166 0a3e 9943 443e 08dc 79be 6a06 c8bd
000002e0: 37be 36bb 6f79 5ebe ad78 893e f217 0c3e
000002f0: 8cfb 7cbe c92c d53c d208 0fbe 3ccc 413d
00000300: 75ac 4d3e 5786 5c3e 6617 653e c6dc 41be
00000310: 6e1e 7e3d d3b9 f7bd 30d6 0fbe 1c73 6cbe
00000320: 4e4d 403e a244 02be fe61 a0bd 7625 973d
00000330: dc64 86be 0aa1 693e 3987 443e ff3f 693e
00000340: 4208 7bbe f282 5c3d b147 95be 0fd4 23be
00000350: bdd8 a2bd c545 15be b723 7bbe acd1 833e
00000360: 7485 a8bd 39ea fb3d 96d0 7f3e 3011 1dbe
00000370: 3372 1e3e 51ec 59be 5dc3 8f3e d05a 8cbe
00000380: 4745 f13d 9af7 293e 32a3 29bd b080 debd
00000390: 9708 18be e88f 16be 2f99 42be 8950 03be
000003a0: 265b 6a3d eeed aebd 8b5a efbb 60d3 703e
000003b0: a698 0dbe 79ca 6dbd 05dc a63b 1486 1c3e
000003c0: a3ef 8fbd cf64 debd e415 08be 4594 46be
000003d0: 6711 e6bd 1c5f 023c f835 f4bc a335 3b3e
000003e0: 27e3 133e 711d e5bd 4573 003e 763c 433d
000003f0: f99c a43c 11f3 0d3d a9c7 353e 4231 46be
-0.09947512 -0.1704344 0.27060872 0.106452264 0.05639146 0.018066065 -0.025916276 0.22211097
-0.17339338 -0.26243454 0.022953099 0.21816659 0.182833 0.13928391 -0.20174386 0.33193508
-0.2720037 0.20560178 0.18042284 -0.009687704 0.16396165 0.17676753 -0.043087218 -0.15343404
0.147074 0.12185454 -0.14549999 -0.08348933 0.12613459 0.11759108 -0.09256853 -0.01948043
0.20574877 0.15104845 0.16624358 0.04480244 0.07528482 -0.076333255 -0.08590716 -0.090674244
0.24522568 0.09082936 0.19660746 0.12122624 -0.18190022 0.09773182 0.20982097 0.0462284
0.1369225 0.104413085 -0.31622285 -0.24198455 -0.15850225 -0.15814117 0.18086447 0.14181365
-0.075450055 0.014365309 -0.0476999 0.22217014 -0.16555111 0.1518132 -0.0280833 -0.1578903
0.10476584 0.12882932 -0.01640247 -0.09462496 -0.15550186 -0.15613903 -0.18671815 -0.09286418
0.021772644 -0.09896531 0.03478944 0.21124019 -0.110453464 0.031500086 -0.03505808 0.17824084
-0.04944146 -0.07747519 -0.09504504 -0.18000482 -0.07268307 0.054236673 0.00463415 0.14308052
0.16300821 -0.091437496 0.119352244 0.068786316 0.0051858155 0.032347687 0.15635075 -0.12636837
0.08981355 0.15966101 0.003995709 -0.15215206 -0.14880243 -0.15165757 -0.19093196 -0.16488247
0.003036269 -0.14638817 -0.019433385 0.22151424 -0.12618257 -0.0041558743 -0.0427383 0.17498994
-0.09633238 -0.040455475 -0.13947135 -0.20460013 -0.08010875 0.050694324 -0.081999585 0.25546145
0.16471113 -0.07795423 0.119797066 0.08021863 -0.008310135 0.052495357 0.15760428 -0.19923681
-0.18356802 0.039290294 0.2389316 -0.074474625 0.07480083 0.18054458 0.14344199 -0.21919672
-0.20896286 0.2095276 0.2186182 0.18306 -0.29100642 0.16903959 0.23114188 0.29748195
0.18016401 -0.19015361 0.04548472 0.09159682 0.18083413 -0.09904679 -0.3051869 0.039453592
0.10218818 -0.28803247 0.045443572 -0.18522038 -0.24990807 0.25871664 0.15458994 -0.32596627
0.0671901 -0.14136441 -0.0030416583 0.06005879 -0.25038925 0.14525954 0.081150785 -0.062392004
0.19040576 0.10371004 0.028038144 -0.059795216 -0.32312286 0.13452108 -0.20436823 0.048328847
-0.14607903 -0.22266738 0.13205333 -0.28889546 0.13515688 0.19166411 -0.24400342 -0.097668484
-0.0027884373 -0.2172601 0.2684988 0.1368101 -0.24705333 0.026022332 -0.13968208 0.047313914
0.20085318 0.21535622 0.22372207 -0.18931875 0.06204074 -0.1209599 -0.1404655 -0.23090786
0.1877949 -0.12721494 -0.078311905 0.07380192 -0.26248825 0.22815338 0.19192208 0.22778319
-0.24514869 0.053835817 -0.2915626 -0.15998863 -0.07951496 -0.14577396 -0.24525343 0.25745904
-0.08228579 0.12300534 0.24981913 -0.15338588 0.15473251 -0.21281554 0.28078738 -0.27413034
0.11780792 0.16598359 -0.0414154 -0.10864389 -0.14847027 -0.14703333 -0.19003747 -0.1282369
0.057215832 -0.08541475 -0.0073044947 0.23518133 -0.13827762 -0.05805442 0.0050921463 0.15285522
-0.07028129 -0.108590715 -0.132896 -0.19392498 -0.11233788 0.007957246 -0.02981089 0.1828218
0.1444212 -0.11187256 0.12543972 0.047665082 0.020094382 0.034655634 0.17751946 -0.19354728

item_text_proj.weight f4 [32, 128]
00000000: 435c bbbe ec28 a8be 8adb 20bf 3b12 81bf
00000010: ec88 c43d 2ccb 15bf 5414 59bf 9c88 83be
00000020: f0f4 39be 0c5d 1cbf 125a 98bd 139e 43bf
00000030: 38d2 abba 6442 21bf 6bd5 3abf 8ce8 773f
00000040: 07d1 6ebf 0153 5dbf 430f 4b3f 711b 323f
00000050: 4530 0fbf e316 393f 11ec fcbe e59b bebe
00000060: 2d98 46bf 4c26 48be 0c06 363f 1f5a 553f
00000070: 034c fbbe d1f8 72bf 413f 2ebf 428c 323f
00000080: 3c59 0f3f 8b0e 023f 536b 643e f5a7 9abd
00000090: 5574 cebe 8c8c 343e b009 723f 4aab 72be
000000a0: 43d1 343f 5174 b7be 0d69 dbbe e5f7 cabe
000000b0: 94e1 3cbf c41f e33d d1eb ccbe be22 fe3e
000000c0: f3f5 123f 3585 a83e 580b 73bf 2d5e 143f
000000d0: e98a 093f 0f2b be3b dfb9 953e 7ecf e33d
000000e0: ed99 33bf 0d07 8a3e e0f0 e33d df7a 1dbf
000000f0: b3c3 6dbf c915 65be 4de2 343f 5657 383f
00000100: 9dc5 4a3f 99a6 e03e 9999 b3be 92cd 033f
00000110: 5edd a1be 6ffe 1abf 00d4 3d3f ac91 dbbe
00000120: b5e1 453f 9e0a 72bd 44a3 3cbe d17d 2d3f
00000130: 2555 d0be 9e8f 873e 416a 4bbe 2a8e f6be
00000140: c556 e5be 6cfa b3be 6d7e 91be dff3 2dbf
00000150: cadf 1d3f 324c d3bb f729 bbbe 4c95 01bf
00000160: 6797 a23e 5508 08bf ad4f 8ebe 5250 afbe
00000170: 8df6 f3be 570a adbe 7349 cb3d 1680 b9be
00000180: 2b09 7f3e 5cea b63e f5e5 363f f9e3 14bf
00000190: 0f1c 773e ab1b 20bf 06d1 893e 32f2 0e3f
000001a0: af36 64be f30d 07bf cb88 83bc be6d 28bf
000001b0: 4ceb e8be cebc 58be a9fa 3fbe 60bc 103e
000001c0: 94e3 8a3d a6fa 893c 6ba1 b1bd b221 413f
000001d0: 0329 9fbd ce4e 483e e321 abbe 3f69 5e3e
000001e0: 0477 093e 7ddd 49bf 7257 9ebe 7f55 b23e
000001f0: 333b 283f d83a 08bf 5c85 05bf 56e7 0bbf
00000200: 4fff 29bf a73c 763f a7bc 103f 0a0b 773f
00000210: e186 6dbf 90bb c73e 5302 fabd 3e6b 89bf
00000220: 1c5b 7d3f a2dd adbe 93de 1bbf b5a5 b5be
00000230: 6e8f 82be 7238 723f 29da e5bd 410a 153f
00000240: f3fa a33e b856 a8bc dd3b 66bf 1a66 7cbf
00000250: 9cb4 bb3e 34ec bfbd 51c6 4ebf 9108 773f
00000260: fbab e53e ffa5 81be 08ad 37bf ef1f 3fbf
00000270: d347 523f a5db 44bf 59cc e13b c163 70bf
00000280: f775 5fbe b826 56be c5c2 a5be 3a4d ff3d
00000290: b1f7 6f3f 70b9 fe3e 88d2 a63d f298 253f
000002a0: 2401 483e ab52 3a3e 054e c9bd 455b ffbe
000002b0: 482a 87be c386 a03e a100 d03d 789a 9dbe
000002c0: b4cf e73d a9b5 2fbf 99ed cd3d bbc2 73be
000002d0: 76e8 ae3e 8498 edbe 1bdf 2f3f 5b9a 8fbe
000002e0: f21c 58bf a5d1 073e 7015 d9bd 154e 80bf
000002f0: d732 d4be 2833 ddbe da5b b6be a672 26bf
00000300: 3476 38bf 9a2c 093f f439 3db8 9e28 53be
00000310: fd1b eebe e2c0 0ebc 7981 c23e 0b57 3dbc
00000320: c305 793d 252e 7b3e cffe e1be e4ac d53d
00000330: 5110 2f3e fb9b 853e 6287 eebe ac70 ac3e
00000340: 349c 333e 5771 19bb dd9b 8b3e 6f0d a53e
00000350: 8fe2 a93e 8ad2 68be 6026 75bd 7138 013f
00000360: 1d33 273f 78a1 ce3e a56d 07bd 7ee5 f4be
00000370: 7406 edbe dbd8 763e a2e6 773e a777 5e3e
00000380: cf9a f1be 3bb1 3cbf 3a38 d03e 27b1 9abe
00000390: 87d6 63be c679 153f c34d a1ba 1f4c 993e
000003a0: 4625 c43c c1a1 413e 0b8d 3ebf a5f4 043f
000003b0: eb39 a93e 7530 8f3d 00a3 8b3d 9221 ff3e
000003c0: 5216 1ebe b5fb a6bd 594a 8b3e 0e8e a33e
000003d0: 6ea5 0a3f 7bee 563e a744 f5be de69 36be
000003e0: 30ae b13c b2cc 60be 0298 12bf 775d 1fbe
000003f0: 67eb 243f 4bb7 a93e b762 7a3e 6a87 97be
-0.36593828 -0.3284372 -0.6283499 -1.0083688 0.09596428 -0.5851314 -0.84796643 -0.25690162
-0.18159842 -0.6107948 -0.074390545 -0.7641308 -0.0013108915 -0.6299193 -0.729819 0.96839213
-0.932877 -0.8645478 0.7932016 0.6957312 -0.5593303 0.7230055 -0.49398854 -0.37228313
-0.7757595 -0.19545859 0.71102977 0.8334064 -0.4908143 -0.94910914 -0.6806527 0.69745266
0.55995536 0.5080344 0.22306566 -0.075515665 -0.4032313 0.1763174 0.9454603 -0.23698154
0.7063181 -0.3583093 -0.42853585 -0.39642254 -0.73781705 0.11090043 -0.40023664 0.4963588
0.5740654 0.3291413 -0.94939184 0.579562 0.53727585 0.005803473 0.2924337 0.1112356
-0.7015675 0.26958504 0.11129928 -0.6151561 -0.9287674 -0.22371592 0.7065781 0.72008264
0.79207784 0.43877104 -0.35078123 0.5148555 -0.31614202 -0.60544485 0.7415161 -0.42884576
0.77297527 -0.059092157 -0.18421656 0.67770106 -0.4068996 0.2647676 -0.19864751 -0.48155338
-0.44792762 -0.35151994 -0.28416768 -0.6795024 0.616696 -0.006448292 -0.36555454 -0.50618434
0.31756136 -0.53137714 -0.27795163 -0.34240967 -0.4764904 -0.3379695 0.09926119 -0.36230534
0.24905841 0.35725677 0.71444637 -0.5816036 0.24131797 -0.6254222 0.26917285 0.5583831
-0.22286485 -0.5275566 -0.016056439 -0.65792453 -0.45492017 -0.21165773 -0.18747963 0.1413436
0.06781688 0.016843151 -0.08673366 0.7544204 -0.07771494 0.19561312 -0.3342429 0.21719836
0.13424307 -0.7885359 -0.3092609 0.34830853 0.6571533 -0.5321479 -0.52156615 -0.54649866
-0.66405195 0.961863 0.5653786 0.9650122 -0.92783934 0.39010286 -0.122074746 -1.0735853
0.98967147 -0.33958155 -0.60886496 -0.35477987 -0.25500053 0.9461738 -0.112232514 0.5821877
0.32027397 -0.020549163 -0.89935094 -0.98593295 0.36661232 -0.09371224 -0.80771357 0.96497446
0.44857773 -0.25321957 -0.717484 -0.746581 0.82140845 -0.7689765 0.006890815 -0.9390221
-0.21822344 -0.20913208 -0.3237516 0.12465902 0.9373732 0.49750853 0.081456244 0.646865
0.19531685 0.18195598 -0.09829334 -0.4987432 -0.26399446 0.31352815 0.1015637 -0.30781913
0.11318913 -0.68636566 0.10055084 -0.23804753 0.3416173 -0.46405423 0.68699807 -0.2804745
-0.8441917 0.13263567 -0.10599792 -1.0023829 -0.41445038 -0.43203092 -0.35616952 -0.6501869
-0.72055364 0.5358368 -4.5115085e-05 -0.20620963 -0.46505728 -0.008712979 0.37989405 -0.011556397
0.06079651 0.24529321 -0.44139716 0.10433367 0.17096068 0.26095566 -0.46587664 0.33679712
0.17540056 -0.0023413503 0.27267352 0.32236812 0.33180663 -0.22736564 -0.05985105 0.5047675
0.6531237 0.40357566 -0.03306355 -0.4783134 -0.46293986 0.24106161 0.24209073 0.21725331
-0.47188422 -0.7370793 0.40667897 -0.30213282 -0.22249804 0.58388937 -0.00123065 0.29940888
0.023943555 0.1890936 -0.74433964 0.519358 0.33052 0.06991664 0.06818199 0.498303
-0.15438202 -0.08153478 0.2720516 0.31944317 0.54158676 0.2098941 -0.4790394 -0.17813823
0.021689504 -0.21953085 -0.57263196 -0.15562998 0.64421695 0.33147654 0.24451719 -0.295955

item_text_proj.bias f4 [32]
00000000: 044c 6ebf 874c a63e 8e74 c3bd 0fa3 2c3f
00000010: 3b2b 63bf 5c90 9e3e 8f4b 74bf 98e1 28bf
00000020: 705d 0c3f 9934 8d3f 9f3d 67bf 3f94 43bf
00000030: f946 253f d045 633f 4f56 673e fda4 44bf
00000040: 964a 1b3f 686f 68bf 60b2 6fbf b216 28bf
00000050: d7ab 6abf 38cb 6a3f b041 863f 46c4 593f
00000060: e7f4 cdbe 9526 243f 065b 70bf 6438 45bf
00000070: 804d 213f 4aaf de3e afd3 7d3e 3204 3cbf
-0.9308474 0.3248026 -0.095437154 0.6743631 -0.8873784 0.30969512 -0.95427793 -0.6596923
0.54830074 1.1031677 -0.903284 -0.7639808 0.6456142 0.887784 0.22591518 -0.7681425
0.60660684 -0.9079499 -0.93631554 -0.6565963 -0.91668457 0.9171634 1.0488796 0.85065114
-0.40225908 0.6412137 -0.9388889 -0.7703917 0.6300888 0.4349311 0.24787782 -0.734439
